ecg_model_multiclass.pth (torch, 389212 bytes, 8 tensors)

net.0.weight f4 [64, 12, 7]
00000000: 7d30 62bd 7222 6bbd 6f2d 0cbd 2f59 c4bc
00000010: d252 94bd 70ab 983c 2315 ddbd 3bff c93c
00000020: 9037 30bc 77c2 6c3d 882e fdbb d2c4 cdbd
00000030: 17a2 633d 4550 b73d ee9e e23c 9b34 5bbd
00000040: 0c2f 563d 2c18 81bc b1c3 983d f9a4 e9bc
00000050: 4762 93bd 0969 763c aa82 4bbb 240f 87bd
00000060: a57d 363d 9679 73bd 3589 f1bd 4688 15bd
00000070: 4fa4 e0bd 1b19 3f3d 2f7e acbb 1bd7 51bd
00000080: c517 d1bd 2575 753d f2cf 033d 7051 593d
00000090: 3545 95bc e683 c6bb a3fe 91bd c9d5 493d
000000a0: 4c53 cb3c 7b03 8dbd 521e 653d d186 87bd
000000b0: 2d44 bc3a 0bd7 5dbd c225 1fbd 4a2c 67bd
000000c0: de05 e3bd 05d7 0fbd a2cf 093c 7942 e9bd
000000d0: cd87 8fbb 0ea0 a83d bd43 71bd ea90 8b3d
000000e0: 620f 83bd ceac 1c3d c536 99bd 2509 25bd
000000f0: bcf0 b13d f583 b7bd 4915 3fbd c020 743d
00000100: ee65 1fbd 4e59 a63c c566 c93b 08f3 2c3c
00000110: da2c 4d3d ba2f 3cbc 9d14 04be 5790 8cbc
00000120: eeb5 1a3d 1861 b2bd 370a dbbd 4184 f2bd
00000130: 5690 afbd c171 94bc 969d d4bc a658 bcbd
00000140: a8ba f6bd c52d 3fbd 9eb7 1f3d 0db2 69bd
00000150: ccd2 123d cda5 0abc d88c 0bbe 462b 90bd
00000160: 55c9 62bc d422 45bc ad1e f5bc 9f1c dbbc
00000170: 4800 03be fba8 ef3c 5c6b efbd 5754 273d
00000180: 0a86 54bd f58f b2bb d2e6 d5bb 5ea2 683c
00000190: 308e 243d 723f 12be 4cbb 043d 3a0d d03c
000001a0: 5f72 92bd 078a e7bd 330e 7cbc 6da0 403b
000001b0: c17c 79bd a3d3 aabd 82bd 713d 319f 5f3d
000001c0: 5014 51be 273b f7bc 021c 2cbe 1a53 b33c
000001d0: a701 123c 1ad9 cabd 48b0 89bd cdf3 95bd
000001e0: eed2 38bd 0aef a6bc ae33 7f3c 143f 8cbd
000001f0: ceb2 1fbe 9bf5 a0bd eaf8 d6bd 998a 58bd
00000200: 1219 09be e5ac c7bd 545e 86bc f7e7 53bd
00000210: 4ffe f8bd 2cf5 ecbd 2de3 1bbe 8af9 ab3b
00000220: 158c 7ebd 0681 e13c 6af7 11be fb17 0b3d
00000230: ce2e 063d ddfa 95bc 379f 853c 9fad 3f3b
00000240: 38c8 fa3c e94e 9b3d c9eb b4bd 60c8 27bd
00000250: ca48 ca3d 3aa6 323d e507 b6bc 82e3 36bd
00000260: 0746 e8bc 107c dbbc 6dc9 da3d 89e6 d53d
00000270: 907c 1dbd db8b 433d 277a c7bd 6740 bcbc
00000280: 563f 18bd c524 163a 7f04 253d 658e 593d
00000290: 4f72 4b3d bd62 93bd 3f65 163d 1caf 28be
000002a0: 8c84 333d 6684 4cbd 1ea4 383d a009 a5bd
000002b0: 00ae c03a 92d2 833d 7fd7 a73b 2c36 553d
000002c0: d6ad 08bd ff9c 963d dba4 b3bd 0e40 00bd
000002d0: aa45 7a3d 32a4 efbd 6384 353d 998c 663c
000002e0: 5303 dcbd 9219 193d cfbb 8e3d 238a 97bd
000002f0: 5435 81bd 7c53 0cbd 8aaf 77bd 1113 85bd
00000300: 0b1e 8c3b e648 2f3d e59a 723c 1455 8b3d
00000310: cdbb 80bd 1267 dfbd d634 e03c 30f9 cfbc
00000320: 4ac1 933b f34a d4bc e3b5 873d 3317 583d
00000330: 920a 173d 43a9 95bd cee5 01be 4233 9dbd
00000340: a777 d2bd 26be 23bd 26be bfbc 676b 07bd
00000350: 7978 743d f9d8 d1bd 6674 5c3d 3618 0bbd
00000360: c8c7 59bd 3dcb a9bd 7389 f8bd acc8 b33b
00000370: 9277 5bbb 272f e4bd 0432 afbd 40a3 72bd
00000380: a68b 7d3d 53ca 94bd 2f97 dcbd f3fc 163c
00000390: bdc7 7fbd 71ab dabd 73f8 443d 32bd 80bd
000003a0: 6113 36bd fe21 723c cc52 ddbc ce85 173d
000003b0: 406f b3bc 89f6 b8bd fbf3 303d 62a3 d6bc
000003c0: 8a03 ba3b 80e9 d6bd 88e7 ccbd 8d7c 81bd
000003d0: 406e a5bd 7ba8 9cbd c9af e5bd dea1 433d
000003e0: 688a a7bd 9dc5 3fbc 2b6e 9abd 033c 143d
000003f0: 6e29 ae3d d0e8 e5bc fd82 56bd f3ff 8bbc
-0.055222023 -0.057405896 -0.034223016 -0.023968307 -0.07242359 0.018636435 -0.10795047 0.024657836
-0.010755435 0.057802644 -0.007726494 -0.10047306 0.055574503 0.08950857 0.027663674 -0.053516965
0.05229096 -0.015758596 0.074592 -0.028521048 -0.07196479 0.015039691 -0.0031053224 -0.06594685
0.044553418 -0.059442125 -0.11793748 -0.036506914 -0.109688394 0.0466548 -0.0052640657 -0.05123053
-0.10209612 0.05992617 0.032180734 0.05305618 -0.018221477 -0.006058204 -0.07128646 0.049276147
0.024819992 -0.068854295 0.05593712 -0.06617511 0.001436358 -0.05416016 -0.038854368 -0.05643872
-0.110851035 -0.035117168 0.00841132 -0.11389632 -0.0043802024 0.08233653 -0.05890249 0.068147495
-0.063994184 0.038250737 -0.074811496 -0.040291924 0.086884946 -0.08960716 -0.04665116 0.059601545
-0.038915567 0.020306256 0.0061462843 0.01055599 0.050091602 -0.011485988 -0.12898488 -0.01715867
0.037771158 -0.087099254 -0.10695308 -0.11841632 -0.08572452 -0.018120648 -0.02595405 -0.09196596
-0.120473206 -0.04667451 0.03899347 -0.057054568 0.035845563 -0.008462382 -0.13627946 -0.07039504
-0.013841947 -0.012032229 -0.029921854 -0.026747046 -0.12793076 0.02925538 -0.11690399 0.040851917
-0.051885642 -0.00544929 -0.00652776 0.014198868 0.040174663 -0.14282015 0.032405183 0.025396932
-0.07150721 -0.113056235 -0.015384245 0.0029392496 -0.06090999 -0.08341148 0.05901862 0.054595176
-0.20417905 -0.030179573 -0.16807559 0.021890212 0.008911527 -0.0990469 -0.06723076 -0.07321892
-0.045123033 -0.020377655 0.015576286 -0.06847969 -0.15595552 -0.078593455 -0.10496695 -0.052866552
-0.1338847 -0.09749774 -0.016402401 -0.05173489 -0.121578805 -0.115702 -0.1522338 0.0052482532
-0.06214531 0.027527343 -0.14254537 0.033958416 0.03275948 -0.018308097 0.016311271 0.0029247773
0.03061305 0.0758341 -0.08834035 -0.040962577 0.09877165 0.043615557 -0.022220561 -0.044650562
-0.028353704 -0.026792556 0.1068295 0.10444362 -0.03844887 0.0477408 -0.097400956 -0.022979928
-0.037169777 0.0005727525 0.04028749 0.053114314 0.04966956 -0.07196567 0.03671765 -0.16473049
0.04382758 -0.049930952 0.04507839 -0.080584764 0.0014700294 0.064366475 0.0051221247 0.052053615
-0.033368908 0.073541634 -0.08771678 -0.031311087 0.061101593 -0.1170124 0.044315707 0.014071607
-0.107428215 0.0373779 0.069694154 -0.07399394 -0.06309 -0.034259304 -0.06047014 -0.06497777
0.0042760423 0.04279413 0.014807438 0.06803337 -0.0628582 -0.10908331 0.027368944 -0.025387377
0.004509126 -0.025914645 0.06626489 0.0527565 0.036875315 -0.07307675 -0.1268532 -0.07675792
-0.10276728 -0.03997626 -0.0234061 -0.03306141 0.059685204 -0.102464624 0.053821944 -0.033958636
-0.053169042 -0.08290718 -0.12135591 0.0054865684 -0.0033488018 -0.11141806 -0.085544616 -0.05923772
0.061900757 -0.07265153 -0.107710235 0.009215581 -0.062446345 -0.10677231 0.048088502 -0.06286086
-0.044452075 0.014778612 -0.02701702 0.03699284 -0.021903634 -0.09031398 0.043201428 -0.026200954
0.0056766914 -0.10493755 -0.100050986 -0.06322584 -0.08077669 -0.076493226 -0.11215169 0.04776179
-0.08180696 -0.0117048295 -0.07540544 0.036190044 0.08503996 -0.028065115 -0.052371014 -0.01708982

net.0.bias f4 [64]
00000000: fe57 66bc fffd e9bd 85ae 693d 2981 083e
00000010: 2821 74bc 57e7 bcbd 38ce 13bc a031 ad3d
00000020: df66 81bc ff79 edbc 33fd 3c3d 7461 90bc
00000030: 5bdc a4bd ebab c6bd 748f c1bd 8082 44bc
00000040: 5a79 303d f866 67bd 2daf 1b3d 26df d83b
00000050: 9783 d7bd da43 b6bd 4143 85bc 456f fe3b
00000060: c54c 423e 9cb8 8bbd fb4d afbc 0fde 46bd
00000070: a41d f2bd 4a8f 2b3d abc2 b23d dcb2 51bd
00000080: 11e6 573d e024 7c3b b7f6 9ebd 0be1 9dbd
00000090: 9827 053e 2a4c a8bd 7a5e 713c 332b 53bd
000000a0: 8e74 823d 77a7 34bd b377 f1bd aa25 e1bd
000000b0: f042 b5bd e7dc 03be b050 f33d fc4d 9c3c
000000c0: 619d edbc 203e 993d d509 21bc 97e9 bebd
000000d0: 7ba9 7b3c f51b 583d 704e d9bc 0272 d0bd
000000e0: fed7 0b3e 63ec dabd cbab 4ebe 7d92 eabd
000000f0: 56f9 953d d444 77bd cc0a fdba a19a 653d
-0.014059065 -0.11425399 0.0570512 0.1333052 -0.014900483 -0.09223812 -0.009021334 0.08456731
-0.015796123 -0.028988836 0.046139907 -0.017624594 -0.08049842 -0.097007595 -0.0945119 -0.011994004
0.04308448 -0.056494683 0.038008858 0.0066183982 -0.10523146 -0.088996604 -0.01626742 0.007764729
0.18974598 -0.06822321 -0.021399489 -0.048551615 -0.1182206 0.041884698 0.08728536 -0.051195964
0.052709643 0.0038474128 -0.07761901 -0.07708939 0.13003385 -0.08217652 0.014731998 -0.05155487
0.06369887 -0.04410502 -0.11790409 -0.10993512 -0.08850658 -0.12877236 0.11880624 0.019080155
-0.029005708 0.074825525 -0.009829004 -0.093218975 0.0153602315 0.052761037 -0.02652666 -0.10177995
0.13656613 -0.106896184 -0.20182721 -0.11453722 0.07322948 -0.060368374 -0.0019305586 0.05605567

net.3.weight f4 [128, 64, 5]
00000000: 5e6c 1b3d 3f5a 02bc 662d 023d 4cb0 fd3c
00000010: c7f5 0b3d b8de a73c 7065 8e3c 20b3 eabc
00000020: 52a6 b43c 59e4 3cbc a3e1 413d 11b9 833c
00000030: 2502 22bd 97b5 783c ad5e 783b 463f 463c
00000040: 7e22 4abd 6c13 ce3c 9c01 4abc eaf8 443d
00000050: ca3b a639 dbf8 3c3c dc2b 1bbc ed1a 153c
00000060: 05fb 50bd 0b4e e43b f61c aebc 183b c73c
00000070: 3c6b 0e3d e617 36bb 79f1 56bd d8a1 56bc
00000080: 6136 62bb 693b 6cbc 031a 13bd 165d 5dbd
00000090: afea 6c3c 50fb 70bd 661f 25bd 3abf e7bc
000000a0: 1d57 073d aeca 1bbd f0e0 d03c 7c5f 26bd
000000b0: c22c ebbc a10f fa3b b9dc a0ba 7404 213c
000000c0: d81f f2bc 7f1d 5bbb 984a b7bc ea31 343c
000000d0: d8e2 5bbd f791 503c 8162 4cbd 6456 bebc
000000e0: 84ab b43c 2523 063d e143 7aba 0f25 313b
000000f0: fdc8 c5b9 497d b53a 2cfa dd3c e3ac 74bd
00000100: 0d8e 26bc ea82 8f3c bfcc c4bc 9a62 02bd
00000110: 7c36 563c cd29 e33c 97f6 813a 8a08 a43b
00000120: 449f 4dbd 356f 6cbb 8ec4 7dbc d62c 653d
00000130: 2d8d 693d 831b 0a3d 1058 9dbc acf8 8fbc
00000140: e269 a8bc 9c6b b0bc 0708 813c 7c27 433b
00000150: 5a38 6ebd 325d d8bc a7f0 1d3d 7f15 a8bc
00000160: 4b2b acbc 72e1 713c a45c 4d3d 0618 233d
00000170: f2c8 253c c5f0 85bc 61b3 0dbd 1bb4 0b3b
00000180: fbfe a43c 3f9d 9ebb da06 eebc ed92 843c
00000190: fdb0 303d 300c 70bc c921 d0bc 17f1 bc3c
000001a0: 4abb 473c a6e8 8abc 11b0 45bd e631 5bbd
000001b0: 500d d5bc eef0 833b ca91 093d 44ac ddbc
000001c0: 41e6 08bc b617 22bc ecf1 d63c 93c4 423d
000001d0: 96c7 3e3d 497d eb3c 76c2 1ebd 1578 d53c
000001e0: 0557 39bd e6f9 a23c c33b 23bd 30ef 53bb
000001f0: 45aa 18bd 9e1a bf3c dcc5 09bd 7a93 b33c
00000200: cadb fb39 4600 02bc 89ee 0dbd dbb6 18bc
00000210: 05fb 233d 7a02 013d 1441 c3bc 10e4 69b9
00000220: 3a15 933b 6f3f 20bc 7814 38bd 49c2 ceba
00000230: 6ff1 bdbc 1c93 4cbc 6aa8 2f3c 6c74 3d3d
00000240: 6cce 093d 9293 043d ba61 463c 6c96 03bc
00000250: 187f 803c a79c 2fbd 353b f1bc 014a e63c
00000260: 63a6 0b3d 8486 f1bc 23aa 49bc afcf fd3b
00000270: e0c3 b13c 22fc 063b e55f db3b 1baf 35bd
00000280: 89b2 4dbd 2304 d93c efd1 ed3c e717 3f3d
00000290: 7866 44bd 82f9 45bc 425d c63a aa1b 3d3d
000002a0: d005 42bb cba4 0ebd b1c7 85bc d399 663c
000002b0: ee47 083d 114e dcbc 1a09 cf3b c38b 69bd
000002c0: 574d d33c c6f2 45bd 74e9 b4bc 6bc1 09bd
000002d0: a9c8 203d e4ac 73bd 88a6 1f3d 48b1 48bd
000002e0: 4430 09bd 824c 0dbd 337c 963c f3ef 8ebb
000002f0: 83c3 bd3c b798 063d d47f 08bd b955 aebd
00000300: d817 98bc 30f2 2abd 55d3 0bbc cf13 50bc
00000310: 4d81 8b3c 32b4 f63b 15ab 15bd e698 5bbb
00000320: bfc1 16bc bdc9 4abc fb48 bb3b 32e5 1fbd
00000330: fce3 cebc dc1e 30bd fbf6 173c a567 1ebd
00000340: f1cd 223d d41c 273d 5a5b 533d 2cbb 06bd
00000350: afda b3ba f25c 12bd bac5 edbc df87 233d
00000360: 7444 95bc ad5d 9b3c 6b6b fa3b 77e0 823c
00000370: 769e f1bc 2666 36bd 7642 59bd c876 233d
00000380: 807b 46bd fdcb d8bc 3477 513d 5594 323d
00000390: 8061 3d3d e434 5f3c 0e61 11bd dc97 36bc
000003a0: ae32 37bd 1b51 653c 3c9a 1e3d bd4f c1bc
000003b0: 2096 ca3a a7fa 7c3c 5ef9 883b cd61 5bbc
000003c0: 15a0 55bd 0dca 463b aa5d d13c 669b 063c
000003d0: 0a40 65bd 3caa f13c 7e79 a7b8 b7c8 85bb
000003e0: ba3a 4fbb 50a9 053d 6880 57bd 3c81 babc
000003f0: e70d b33a a1cb e13c 4c9c bd3a 48a4 bf3c
0.037945144 -0.007956087 0.031781577 0.030967854 0.03416994 0.020491943 0.017382354 -0.028649867
0.022051964 -0.011529052 0.047334325 0.016079457 -0.039552826 0.015180013 0.0037898228 0.0121000465
-0.0493493 0.025155745 -0.012329485 0.048088945 0.00031706534 0.011533941 -0.009470906 0.009100658
-0.05102064 0.0069673113 -0.021254044 0.02432017 0.034770235 -0.002778524 -0.05247638 -0.01310011
-0.0034517276 -0.014418461 -0.03591348 -0.05404385 0.01446025 -0.05883342 -0.040313147 -0.028289426
0.033042062 -0.038035087 0.025497884 -0.040618405 -0.028707866 0.0076312576 -0.0012272812 0.009827722
-0.0295562 -0.003343433 -0.022374436 0.010998229 -0.053683132 0.012730113 -0.04989863 -0.023234554
0.022054441 0.03274836 -0.0009546858 0.0027030145 -0.00037724516 0.0013846542 0.02709683 -0.05973519
-0.0101657035 0.01751848 -0.024023412 -0.031832315 0.0130745135 0.027729893 0.0009915408 0.0050059007
-0.050200716 -0.0036077027 -0.015488757 0.055950962 0.0570194 0.033717643 -0.01920703 -0.01757463
-0.020558301 -0.021535687 0.015750898 0.0029778173 -0.05815921 -0.026411626 0.038559582 -0.020518063
-0.021016737 0.014763223 0.050137177 0.039817832 0.01011871 -0.01635016 -0.034594897 0.0021317068
0.020141115 -0.0048405225 -0.029056001 0.01618334 0.04313754 -0.014651343 -0.025406735 0.02306418
0.012190649 -0.016956639 -0.048263613 -0.053514384 -0.026007324 0.004026524 0.0335863 -0.027059682
-0.008355678 -0.009893348 0.026238404 0.04755075 0.04657706 0.028746264 -0.03875967 0.026058236
-0.045249004 0.019894551 -0.039851915 -0.0032338612 -0.037271757 0.023328122 -0.03363596 0.021920908
0.00048038206 -0.0079346355 -0.034651313 -0.00932094 0.040034313 0.031496502 -0.023834743 -0.00022305571
0.0044886144 -0.009780749 -0.044941396 -0.0015774454 -0.023186414 -0.0124862455 0.010721305 0.046253607
0.033644125 0.032367297 0.012108261 -0.008031469 0.015685603 -0.042874005 -0.029447177 0.02811146
0.034094226 -0.029483087 -0.01230863 0.007745705 0.021699846 0.002059706 0.006694781 -0.044356447
-0.050219093 0.02649123 0.029030768 0.046653654 -0.047949284 -0.012083413 0.0015133994 0.04616896
-0.0029605515 -0.034825128 -0.016330572 0.0140747605 0.033271722 -0.026892694 0.0063182237 -0.057018053
0.025793714 -0.04832723 -0.022083975 -0.033631723 0.039253864 -0.059491053 0.038977176 -0.048997194
-0.033493295 -0.03449679 0.01836977 -0.0043621003 0.023164516 0.032860484 -0.03332503 -0.08512444
-0.018566057 -0.041734874 -0.008534272 -0.012700035 0.017029429 0.007528805 -0.03654011 -0.0033507883
-0.009201466 -0.0123772 0.005715487 -0.039036937 -0.025255196 -0.04299818 0.009275193 -0.038673062
0.039747182 0.040798977 0.05160079 -0.032893345 -0.0013721789 -0.03573317 -0.029024947 0.0399245
-0.018221118 0.018965567 0.0076421998 0.015976174 -0.029494505 -0.04453101 -0.053041898 0.0399082
-0.048457623 -0.026464457 0.05113907 0.04359849 0.04623556 0.01362345 -0.03549295 -0.0111446045
-0.044726066 0.013996388 0.038721308 -0.023597592 0.0015456118 0.01544062 0.0041801175 -0.013390017
-0.05215462 0.0030332834 0.025557358 0.008215761 -0.055969276 0.02950012 -7.98581e-05 -0.004082765
-0.0031620697 0.032632172 -0.052612692 -0.022766702 0.001366076 0.027562918 0.0014466136 0.023393765

net.3.bias f4 [128]
00000000: a723 70bd 66f3 ddbd 30f4 ed3c 514a 023e
00000010: 1ec1 873b c7d0 12bd 3143 ecbd f74a be3c
00000020: f7bf 283c 8762 8abb f7c6 033e 398b a33d
00000030: 2106 8abd cf97 0fbd e81a 113d 5382 063c
00000040: 1ae9 223a 5aae 00be f7a2 3d3e aa69 373e
00000050: 74ac fabd aaee 5c3d 9002 193e 7460 973d
00000060: 8927 93bd 6e7c ee3c 43df a6bd 9f69 5ebd
00000070: e391 5fbd c799 8639 b066 75bc d16a ac3d
00000080: c4a1 a0bd 8533 363d 3df6 cebd f926 69bd
00000090: 1814 8fbd 565c 6fbd 2e44 bfbd 284d 24bd
000000a0: e245 d83d b058 8cbd a274 9dbd 7493 a5bd
000000b0: ec42 3839 10f2 77ba 79a5 3cbd c85a 25be
000000c0: 43a5 04bc 6ccf 00bd 1642 7d3c 6572 e9bb
000000d0: fed4 0e3e 0e47 983c 7793 e23d e484 113e
000000e0: 97bf 8ebd b17c 1f3e 3480 8abd db23 c03d
000000f0: 84e6 0c3e 496f 5e3d 458f 043e 2edc 7d3d
00000100: b3af 48bd e0f4 41bd 6401 3cbd 0975 94bd
00000110: 7315 5fbd 0df4 093c 36c1 3e3d e212 303d
00000120: e959 c8bc 6c80 adbc bdd9 18be d43a 9d3d
00000130: 9310 4d3c 9432 7bbd 27c6 9ebd f920 163d
00000140: 3097 85bc 4a60 a7bc 6d31 98bc f862 d43c
00000150: 9dc9 2d3e dfda 4dbd b164 bc3c 496f 183e
00000160: c495 0b3e 376d a8bd 1096 c7bc ac15 c6bd
00000170: 2574 92bd 49f8 913d 2f97 c23c 57b8 383e
00000180: aead 2f3d 9983 24bd cff6 0e3e b40b b7bd
00000190: 61ba 2fbd 2cf6 9dbd 4d78 033d 5cb4 65ba
000001a0: 5849 153c 6c59 f73d 9feb 343d e3e0 49bc
000001b0: f270 0bbe 05b0 0c3e 585c cb3b 0ce0 2d3e
000001c0: 8292 e33d cd50 a63a 1936 82bd e161 ff3d
000001d0: 6083 2bbe 2d08 85bd 99e2 083d de24 4fbe
000001e0: 6345 0f3d 1be1 a73d 7802 58bd efe7 223d
000001f0: 8f71 4dbc f798 fd3c 0317 a63d 4f88 ad3d
-0.05862775 -0.1083744 0.029047102 0.12723662 0.0041428944 -0.035843637 -0.11536253 0.023229105
0.010299674 -0.004223171 0.12868868 0.07985539 -0.0673945 -0.035056885 0.03542605 0.008209783
0.00062145444 -0.1256651 0.18519197 0.17911401 -0.12239924 0.053938545 0.14942384 0.07391444
-0.07185275 0.029112067 -0.081480525 -0.054299947 -0.054582488 0.00025673045 -0.014978096 0.08418811
-0.07843354 0.044482727 -0.1010556 -0.056921933 -0.069862545 -0.058437668 -0.09339176 -0.040112644
0.10560204 -0.06852853 -0.076882616 -0.08084765 0.00017572538 -0.00094583724 -0.046056245 -0.16147912
-0.008096042 -0.031447813 0.015457651 -0.0071242326 0.13948438 0.018588569 0.11063283 0.1421085
-0.069701366 0.1557491 -0.06762734 0.09381839 0.1375981 0.05430535 0.12945278 0.061977558
-0.048995685 -0.04735267 -0.045899764 -0.07248885 -0.054463815 0.008420003 0.04657098 0.042986758
-0.024456935 -0.0211794 -0.1492681 0.07677236 0.012516159 -0.061327532 -0.07752638 0.03665254
-0.016307443 -0.020431656 -0.018578256 0.025926098 0.1697144 -0.05025756 0.022997232 0.14886202
0.1363135 -0.08223956 -0.024363548 -0.09672102 -0.07151059 0.07127435 0.02375373 0.1803907
0.042890243 -0.040164564 0.13961338 -0.08937779 -0.042902354 -0.07712969 0.03209715 -0.00087625324
0.009111725 0.12077603 0.04417002 -0.012321684 -0.13617304 0.13739021 0.0062060766 0.16979998
0.111119285 0.0012688875 -0.063579746 0.12469841 -0.16749334 -0.064957 0.033419225 -0.20228907
0.03497828 0.08197232 -0.05273673 0.03977197 -0.0125392815 0.030956728 0.08109858 0.084732644

net.6.weight f4 [128, 128, 3]
00000000: 8e1f c73c f2b6 533c 8a11 453d 32bf 9f3b
00000010: 61ca 0ebd 99b8 7d3c cb09 b03c a857 0b3d
00000020: 17f8 03bd 6a4e cabd 7177 fdbd c4a9 10be
00000030: 26ae 0abd 960e 133c 3f82 20bd ef4a 9bbc
00000040: 17cf d43b 3efc c1bc 23d7 c03d 4231 083c
00000050: d4e2 2b3c c02f d0bd d9e2 a8bd 52e8 52bd
00000060: 5675 1fbd 0070 0c3c 12d8 123d 0097 85bc
00000070: 4f87 11bc f15e 1fbb 3d89 46be fe60 48be
00000080: b0ac 2bbe dfc9 f6bd e752 0ebe 70ff bd3b
00000090: 59fc f73d d5cb 333d eed1 dc3c 7534 4ebe
000000a0: 8570 a6be fdee 99be ce91 34be f29f 6abe
000000b0: d6b1 16be 05bd 29bc 6eff 973c 0622 87bd
000000c0: d145 1cbb e49d 023d b41c f03c e58f d63d
000000d0: d6a5 d33d e680 c93d 2077 c9bd bcf9 cebd
000000e0: b340 babd 7652 acbd 4e73 9fbd fc7f c9bd
000000f0: 23d1 e93d 0b73 303d 17e7 683d 3cb0 0dbd
00000100: eba5 9539 48ca 683d 97ec 8dbe 1a29 8cbe
00000110: 64d5 65be de49 c4bd d2c4 f3bd 1319 edbd
00000120: 36e8 b33d 0d50 8e3b 9acb 013d 0cd1 51bd
00000130: f484 59be 98ab 6fbe be5c f13b a1b7 53bc
00000140: 0ddb ab3c 520c 82bb bbb4 c4bb a9d4 16bd
00000150: 3d62 ef3c 61cf 64bc 9a38 9ebd 8f85 63bd
00000160: 2775 c3bd 03ac 8dbd 09d9 a6be b3f8 fbbe
00000170: 3a4e 27bf 1769 eebb 36bf 31bc 4c67 48bd
00000180: 7a69 073e 3837 0b3e 108a 673c 4e54 53be
00000190: 4e94 78be 6cf7 5abe 35a0 7b3d 48e3 9b3d
000001a0: 696c 23bb fc15 27bd 50dc 113c fea5 f0bc
000001b0: 830e 62be 7c6a a0be 6a59 cebe b258 09bd
000001c0: a730 43bd 86b5 2a3d 1c02 0d3e 20c0 0d3d
000001d0: 023f b8bb a620 e83d adfa d43d 4c38 0d3e
000001e0: 678e 2cbd 720a acbd d5c5 d3bb 20a3 c5be
000001f0: 7e14 9cbe 8171 69be bca0 d6bd 308d 22be
00000200: 5ef1 80be fb7f 843c 4a1a f3bc d22e e83c
00000210: fb95 87be 39d6 92be 882c 8bbe 557d 3dbe
00000220: ff0b 03be 6a6f 5bbe 2c92 3bbd 783e 923b
00000230: 73a1 fb3a ef10 79bc 8913 ffbb 9088 0d3c
00000240: eddc 1bbe 6bf2 1abe 222c 7cbd b4da 13bd
00000250: 91a6 05bd 0264 ffbc 62be c5bc d112 a3bc
00000260: d4ce 583d 543a 133e 79a1 f3bd 2054 e6bd
00000270: aec8 f7bd 0755 c0bd 515b a9bd bea6 babd
00000280: c839 10be f78f eabd adee 0cbe 3f92 d0bd
00000290: def6 1abe 01c7 05bd a2e1 a4bc 6319 36bd
000002a0: 0e45 d83c da96 05bc 717a 9cbb b5a5 dabd
000002b0: 8b9a 04be df84 16be 9fd9 553c 8b98 e2bc
000002c0: 2546 943c 03e1 d8bd ffdc 17bd 50ee a7bd
000002d0: 5c53 f1bd 7846 d5bd 626f e6bd 4c2a 1ebe
000002e0: 7bda cfbd 7bda f1bd a3b1 6dbe 9ff9 20be
000002f0: 04df e3bd 97e2 83bd ed4e 13be 43eb adbd
00000300: 7384 623d 4eae 0fbd d4d8 3cbd a072 863d
00000310: b1e8 033d b0fe 8a3c 838a c03c a6ef 283c
00000320: b2b8 ed3c ed72 13bd 9123 44bc 6bb4 a7ba
00000330: 1a29 78bd 9566 9fbd 7a8e b5bd 16ee cebb
00000340: 2c4d 9b3b e4f8 323d 6e8a 0bbf 47c2 30bf
00000350: 0c9c 31bf d4b2 8bbd 7db5 83bd 991c c9bd
00000360: 8b1a 9c3d a673 16ba 1e3c 48bd 137a 103d
00000370: cc24 a73a 19d0 1c3c d81d a13d 02be 433d
00000380: 93a9 a43d 5389 17be 5329 2abe ba97 05be
00000390: fe95 dcbd d3eb adbd db6d 04be f60b c8ba
000003a0: e7f6 52bc dd95 223d 0d8b 103e 5efd e23d
000003b0: cc08 1cbc a8cb 74bd fb82 3fbe f67a 30be
000003c0: 53ab 0c3d 4542 bf3c c21c 453d 3a53 0fbe
000003d0: f863 a7bd 4e3e f9bd 531e 25bd e9ee f7bc
000003e0: 1fc9 96bd 5652 c5bb c986 2fbc 188d 05bc
000003f0: 4507 e5bd 5240 c9bd 47ae 31bc 9948 ed3c
0.024307039 0.0129220355 0.04811243 0.004875087 -0.034860972 0.015485906 0.021489045 0.034019142
-0.03221902 -0.098782375 -0.12376297 -0.1412726 -0.033857487 0.0089756455 -0.039186712 -0.01895663
0.0064944136 -0.023679849 0.09416034 0.008312525 0.010491092 -0.101653576 -0.08246393 -0.05149109
-0.03893026 0.008571625 0.035850592 -0.016307354 -0.008882358 -0.0024318064 -0.1938829 -0.1956825
-0.16765094 -0.120502226 -0.13898812 0.005798273 0.12108678 0.04389556 0.026955571 -0.20137198
-0.3250772 -0.30065146 -0.17633745 -0.22912577 -0.14716277 -0.010360007 0.018554416 -0.06598286
-0.0023845325 0.031888857 0.029310562 0.104766645 0.10334365 0.098390386 -0.098371744 -0.10106227
-0.09094372 -0.08414166 -0.077856645 -0.09838864 0.11416843 0.043078464 0.05686101 -0.0345919
0.00028543113 0.056833535 -0.27719566 -0.27375108 -0.22444683 -0.095844015 -0.11902775 -0.11577048
0.08784525 0.004343039 0.03168831 -0.051224753 -0.21242124 -0.23405302 0.007365792 -0.0129221985
0.020978475 -0.003968754 -0.00600299 -0.036823902 0.029221648 -0.013965459 -0.0772564 -0.055547293
-0.095438294 -0.06917574 -0.3258746 -0.4921318 -0.6535374 -0.0072757113 -0.010848811 -0.048926637
0.1322383 0.13595283 0.014132038 -0.20637628 -0.24275324 -0.21383446 0.061432082 0.0761171
-0.0024936444 -0.04079245 0.008902624 -0.029376026 -0.22075848 -0.3133124 -0.40302593 -0.033531852
-0.04765382 0.04167702 0.13770336 0.034607053 -0.0056227455 0.11334352 0.10399375 0.13791007
-0.042127993 -0.0840043 -0.0064627924 -0.38601017 -0.30484384 -0.22797205 -0.104798764 -0.15874171
-0.2518415 0.016174307 -0.029675622 0.028342638 -0.26481614 -0.28679064 -0.27182412 -0.18504842
-0.12797545 -0.2142922 -0.045793697 0.0044630133 0.0019197896 -0.015201791 -0.007784311 0.008638516
-0.15220995 -0.15131538 -0.061565526 -0.036097243 -0.032629553 -0.031175617 -0.024138633 -0.019906433
0.05293162 0.14377719 -0.11896033 -0.11246514 -0.120988235 -0.09391218 -0.0826937 -0.09113835
-0.14084542 -0.1145324 -0.13762923 -0.10184144 -0.15133235 -0.032660488 -0.020127121 -0.044457804
0.026400115 -0.008153642 -0.0047753383 -0.10676137 -0.12949578 -0.14699124 0.013052373 -0.027660629
0.018099854 -0.105897926 -0.037075993 -0.081997514 -0.11783478 -0.104138315 -0.11251713 -0.15445822
-0.10149094 -0.1180925 -0.23212294 -0.15720223 -0.11126521 -0.06439703 -0.14385577 -0.08492138
0.055302095 -0.03507834 -0.04610522 0.06564832 0.032204334 0.016967148 0.023503548 0.010311043
0.029018734 -0.035998274 -0.01197137 -0.0012794858 -0.060586073 -0.07783238 -0.08865066 -0.006315003
0.004739424 0.04369439 -0.545081 -0.69046444 -0.69378734 -0.06821218 -0.064311005 -0.09819908
0.0762225 -0.0005739279 -0.048885457 0.03527267 0.0012752055 0.009571099 0.0786702 0.047788627
0.08040156 -0.14798479 -0.16617326 -0.1304616 -0.10770796 -0.084922455 -0.12932532 -0.0015262354
-0.012876249 0.039693702 0.14115544 0.11083482 -0.009523582 -0.059764534 -0.18702309 -0.17234406
0.034343075 0.02334703 0.04812313 -0.13996592 -0.081733644 -0.12170087 -0.040312123 -0.030265288
-0.073625796 -0.006021778 -0.010713288 -0.008151315 -0.11183027 -0.09826721 -0.010844774 0.028965281

net.6.bias f4 [128]
00000000: c4eb 3cbe 2ff6 97bc debe 90bd b351 953d
00000010: 1b3e 2c3c 32a5 89bd 3607 4b3c 6ddd 96bc
00000020: 23eb ad3d 0ab9 56bd 3231 3e3e b149 0dbe
00000030: 2aff c4bc 715e e53d d1c8 273e 3af4 273e
00000040: 764e c1bc 9b19 93bd f02f 1b3e d08b d63d
00000050: 1515 3c3e 6617 61bc 1325 433e 0041 bebb
00000060: cdc2 a03c ff0a 76bd 7e1b abb8 87ec a6bd
00000070: feaf 99bd 8af4 97bd 60db 0c3e b3c3 f0bd
00000080: 9138 b53c 377d 78bc d7af c43c 436d 46bd
00000090: 189c 8c3d aea3 05bd b80a ff3d 4c8c cabd
000000a0: 9cc0 c1bc 373a ea3d 29a7 203e 9ddc d8bc
000000b0: cb24 59bd 74cb 22be 48e1 c63d f9cd e9bb
000000c0: 4bcd 10bd 8a8e 1d3d 7a85 24bb 34fe d1bc
000000d0: b776 2f3c f209 a9bb e36a 8cbd 099e c73d
000000e0: 5d5f 0e3e ed42 3cbd 129c 553d 0818 abbd
000000f0: ff94 3d3d 6287 98bd 0e50 68be 6925 e0bc
00000100: 2bfa 853d afd1 a83d 8bd9 a4bd a82d f9bc
00000110: 6632 54bd f9a4 09bd 0377 1dbd 397a 113d
00000120: 0ad7 2dbe 5c94 973c 9a5e 113e 38a9 e2bc
00000130: 823a 1a3d aeb9 163e 3323 683d 1674 2ebb
00000140: e885 1bbd 7b54 ad3c f94c 46bd 6680 34bd
00000150: 3800 123e 4d7b 38bd be87 4dbc 645b d7bd
00000160: fb65 1e3e a107 03bd e130 543e 52bb 83bb
00000170: afa9 083e b12c a9bd 5aaf dc3d 1b14 26bd
00000180: f800 48bc 67d5 c1bc 769d 85bc 513d 41bd
00000190: 2927 283e c073 8ebd 2cc8 933d 475b 053d
000001a0: dfee f63c 6ab3 3c3e 52c5 08be f19c 87bc
000001b0: e144 983d 4595 48bd 6cac 47bd b2fe 35be
000001c0: 3aa4 26b7 0714 c9bc 91bc 413e 3ebe 02bc
000001d0: a94e da3b d65e 20be 91e6 c8bd c8a8 8abd
000001e0: b378 e53d b2ce 2dbd 4821 2a3e 7322 92bc
000001f0: ffe4 c13d f689 003c 46dc 22be 554b 9bbd
-0.18449312 -0.018550007 -0.07067655 0.072909735 0.010512854 -0.06720962 0.012391856 -0.01841613
0.084921144 -0.05242256 0.18573454 -0.13797642 -0.024047453 0.11199654 0.16385199 0.16401759
-0.023596983 -0.07182618 0.15155005 0.10475886 0.18367417 -0.013738489 0.19057111 -0.0058060884
0.019624138 -0.06006908 -8.159036e-05 -0.08150583 -0.07504271 -0.07419689 0.1375556 -0.11756077
0.0221217 -0.015166572 0.024009628 -0.048444044 0.0686571 -0.0326268 0.12453216 -0.09890041
-0.023651414 0.11436885 0.15688767 -0.026472384 -0.053013604 -0.15897924 0.09710938 -0.0071351496
-0.035352033 0.038466014 -0.0025103972 -0.025633909 0.010709456 -0.0051586563 -0.068563245 0.0974694
0.13903566 -0.045962263 0.052150793 -0.08354193 0.046284672 -0.07447697 -0.22686788 -0.027361589
0.065418564 0.08243119 -0.080493055 -0.030417278 -0.051805876 -0.033604596 -0.038443577 0.03551695
-0.16976562 0.01850336 0.14196244 -0.02766858 0.037653454 0.14719269 0.056674194 -0.0026619486
-0.0379695 0.021158447 -0.04841325 -0.044067763 0.14257896 -0.045039464 -0.0125445705 -0.10515478
0.1546859 -0.031989697 0.20721771 -0.004020133 0.13345979 -0.08260477 0.10775633 -0.040546518
-0.012207262 -0.023661328 -0.016310435 -0.047177617 0.16421188 -0.06955671 0.07215914 0.032557752
0.0301432 0.18427816 -0.13356522 -0.016554328 0.074350126 -0.04897048 -0.04874842 -0.1777294
-9.932608e-06 -0.024545683 0.18919589 -0.007979928 0.006662209 -0.15661177 -0.09809602 -0.06770474
0.11204662 -0.042433448 0.16614258 -0.017838692 0.09467506 0.007845392 -0.1590434 -0.07582728

fc.weight f4 [5, 128]
00000000: e58a 80bd face 3abe 9643 a7bd 6f2d d0bb
00000010: 16c6 18be b482 a43d c0b5 81bd 339a 233c
00000020: f9c6 7c3d 75f1 f93c 1280 833d b3f6 a93e
00000030: 8d41 8bbc 8534 fc3d 22a4 4ebb 7ca1 ac3d
00000040: 72a9 583d 15b6 9d3d ae75 8db9 04e0 693d
00000050: 5a35 b53d a5c3 41bd a164 a23d 0a8b 71bd
00000060: cb39 ae3c 1091 863c bce8 193d 5c1c 30be
00000070: 280e c2bd d426 03bc ee87 183d d1b4 bfbd
00000080: ade3 2dbd 4bcf 3ebe 2e72 003e 6ef3 bbbd
00000090: 2229 6b3c 2f5b 97bc 6790 ad3d 70ea 14bd
000000a0: f3f4 0e3d 6381 853d cd9f 533d f309 8a3d
000000b0: 9289 f33c c510 aabd 5a94 3cb9 c7b4 c63d
000000c0: e2ad 97bd ace5 013e d46d e7bc 0a3e 22bc
000000d0: a5fc 57bd fc2f a23c 01ac 5abc 3df0 333c
000000e0: 8c12 973d 05e6 a63b 21b8 503d 7687 a13d
000000f0: 5628 22bd 4a3c 85be 9e7c 9cbe 3f0e 8ebd
00000100: 5337 513c 09c1 443d 5beb 62be 79b6 ecbc
00000110: adbb 1dbd 5288 91bd ba00 0c3d 23ef 473d
00000120: 7e8b 00be 5420 46bd 6a80 723b 91b2 a23c
00000130: 0b6d 96bd 6d96 9e3c a96b 293c 8b24 093b
00000140: 3f0a d13c 5966 8abc c9b1 82bd e9a9 44bd
00000150: 1e22 453d 3510 643d fd9a 50bd c66b 05be
00000160: 1287 943d a723 863d 3724 633d 573a 23be
00000170: 61ed cdba 8021 663c d2de 783d 54d4 88ba
00000180: 0ffa 57bc 39d7 3dbd fe57 853c cac2 303c
00000190: de92 b23d d145 7a3c a74f cfbd 3cc5 55be
000001a0: 417f 72bd 8238 42bc bc92 473d 2001 3b3d
000001b0: d630 423d 0b03 c6bc e7bb 143d f7e5 f8bd
000001c0: d69b 673d 6976 31bd 12bd b33d cdc8 edbc
000001d0: 3dd7 983c 84b0 1fbe a450 92bc e49e 17bd
000001e0: 6425 3cba 79a7 74be f4d7 87bc b1f6 873d
000001f0: 363d 223c 2bee b1bc 1267 7bbd 6658 58be
00000200: 2a1c d1bd dd20 8c3d aab1 8cbd 6f96 0c3e
00000210: 3f8b ea3d 9eef 2ebe 3b02 e0bb adc3 a8bd
00000220: 0857 f4bd 4e82 2e3c 6d4a 763c c0cc f8be
00000230: aa48 1dbd f084 b5bd 0b9d b13d 5aef 77bd
00000240: 513e 123d 6a80 89be 6a01 103d 24ce d73c
00000250: fe0e e2bc d59b 63bd 0aea 8dbd 8b82 35bd
00000260: 39fb 123d bac0 e1bc 30a4 b03d ea08 3b3e
00000270: cfb1 91bc 4633 9f3d e3d0 97bc 7258 c4bc
00000280: 7021 a83d f1af 0d3e 4027 c6bd dcc2 a4bc
00000290: f662 133a 7e8b a53c 69e3 f9bb 972b 853c
000002a0: f1d2 6abd b504 063e 8e63 8abd 3108 0fba
000002b0: 42f2 b3bc b338 233d be46 f03d a583 953b
000002c0: 3910 4abd 97ff c83d 9ff7 283e 3707 fc39
000002d0: 9b19 2f3d 1f6e b6bd 6e0e 4c3b 7a50 7e3d
000002e0: 95eb 93bd 0acd cb3c 4404 70bd 3949 fa3d
000002f0: fcc9 ef3d a2a3 083d 5a9b 953c f9fc 82bd
00000300: 06b4 77bb d6ba e13d 1a00 29bd d04e 453d
00000310: 8b95 56bd 0101 d6bc e283 36bd 312d 4fbe
00000320: 60b2 24bd 6141 e9bc 8c8f a13c a9ed 2c3d
00000330: 5451 913c 1716 e93c e9c6 433e 9b4e 9abd
00000340: 97da 82bd 5476 d83d 48aa e9bc c1f5 343c
00000350: 34c2 b93c dcd3 6cbd 0b7b bcbb 0cf7 1b3c
00000360: e6ba af3d 865b f9bd bca3 21bd af44 b63d
00000370: 5a71 0a3e ab60 efbc 88c5 b0bd dd2b db3c
00000380: 2b64 8ebd ee86 f0bc c029 983b 8ab9 35bd
00000390: 7d6f d43d 3e92 dc3c f766 203d 6a90 e2bb
000003a0: acfc c53c 9c2b 18bd 45ad 87be a1a5 b5bc
000003b0: 2b30 04be 9a56 5c3d 58c4 f4bd 0bd7 6bbd
000003c0: 2ecf 12bc 3c02 61bd 6b83 8fbd 3b88 69bc
000003d0: 3615 1cbd bd77 29bc f834 87bc a816 00bc
000003e0: ec48 f63d 7027 d63d c154 013e 8dac 973c
000003f0: 1026 ba3d 843b 9ebd b749 9cbd f4e0 f43d
-0.06276492 -0.18243018 -0.08167188 -0.0063530724 -0.14919314 0.08032742 -0.06333494 0.009985494
0.061713193 0.030510643 0.06420912 0.3319603 -0.01699903 0.12314705 -0.0031530936 0.08429238
0.05289597 0.07700745 -0.00026981294 0.057098404 0.08848067 -0.04730572 0.0792935 -0.05897049
0.021267792 0.016426593 0.03757547 -0.17198318 -0.09475356 -0.008004863 0.037239008 -0.0936066
-0.042453457 -0.18633763 0.12543556 -0.0917729 0.014353069 -0.018476097 0.08474808 -0.03635639
0.03490157 0.06518819 0.05166607 0.06740179 0.029728685 -0.0830398 -0.00017984342 0.09702449
-0.074062124 0.12685269 -0.028250612 -0.009902487 -0.052731175 0.019798271 -0.013346673 0.01098257
0.073765844 0.0050933384 0.05095685 0.07887165 -0.03958925 -0.2602256 -0.30563825 -0.06936311
0.012769538 0.048035655 -0.22160093 -0.028895603 -0.03850906 -0.07106079 0.03418038 0.048812043
-0.12553212 -0.048370674 0.003700281 0.019860538 -0.07345017 0.019358838 0.01034061 0.0020926322
0.025517581 -0.016894506 -0.06381566 -0.0480136 0.04812824 0.05567952 -0.05092906 -0.13029394
0.07252325 0.06549769 0.05545446 -0.15940224 -0.0015711003 0.014046073 0.060759373 -0.0010439255
-0.013182177 -0.04634783 0.01627731 0.010788629 0.08719419 0.015275435 -0.10122614 -0.2087602
-0.05920339 -0.011854293 0.04872392 0.04565537 0.047409855 -0.024171373 0.03631201 -0.12153237
0.0565451 -0.043325815 0.08776297 -0.029026413 0.018657321 -0.15594679 -0.017860718 -0.037016764
-0.00071772025 -0.23892011 -0.016582467 0.066388495 0.009902289 -0.021720013 -0.061377592 -0.21127471
-0.1021045 0.06842206 -0.06869824 0.13729261 0.1145234 -0.17083594 -0.0068362034 -0.08240447
-0.119306624 0.010651184 0.015032393 -0.48593712 -0.038399376 -0.088632464 0.08672532 -0.060530998
0.03570396 -0.26855785 0.0351576 0.026343413 -0.02759504 -0.055568535 -0.06929405 -0.04431395
0.035884116 -0.02755772 0.08625066 0.18265119 -0.017784981 0.077734515 -0.018532222 -0.023967955
0.08209503 0.13836648 -0.09675455 -0.020112447 0.00056223513 0.020208117 -0.0076259864 0.016256137
-0.057330076 0.13087733 -0.0675727 -0.00054562377 -0.021966103 0.039848994 0.11732243 0.0045628124
-0.049331877 0.09814375 0.1650071 0.0004807056 0.04274903 -0.08907723 0.003113653 0.062088467
-0.07222668 0.024878044 -0.058597818 0.12220997 0.11708447 0.033359177 0.018262554 -0.06395907
-0.0037796511 0.11021964 -0.041259862 0.048170865 -0.05238871 -0.026123526 -0.044559367 -0.20232083
-0.040209174 -0.028473558 0.019721769 0.042218838 0.017738976 0.028452916 0.19118847 -0.07534524
-0.06389349 0.10569444 -0.02852358 0.01104492 0.022675611 -0.057819232 -0.0057519726 0.00951935
0.0858057 -0.1217566 -0.03946279 0.08899819 0.13519803 -0.0292209 -0.08631426 0.026754314
-0.06952699 -0.029361214 0.004643649 -0.044366397 0.10372827 0.026925202 0.039160695 -0.006914188
0.024168335 -0.037150964 -0.26499382 -0.022173705 -0.12909 0.053793527 -0.11951512 -0.057578128
-0.008960528 -0.05493377 -0.07007488 -0.014253671 -0.038106166 -0.010343489 -0.01650475 -0.007817902
0.120256275 0.10456741 0.12629987 0.018514896 0.09089291 -0.077261955 -0.076312475 0.11956969

fc.bias f4 [5]
00000000: 56fb 6d3e 6aad c2bc 180a 37be 6368 bfbc
00000010: 3782 05bd
0.23240408 -0.02376433 -0.17874944 -0.023365205 -0.032594886
